…
    G_scheduler_type: MultiStepLR
    G_scheduler_milestones: [200000, 400000, 600000, 800000, 1000000, 2000000]
    G_scheduler_gamma: 0.5
    G_regularizer_orthstep: None
    G_regularizer_clipstep: None
    checkpoint_test: 50
    checkpoint_save: 50
    checkpoint_print: 200
  ]
  opt_path: options/train_srmd.json
  is_train: True

20-10-19 09:05:15.778 : loading PCA projection matrix...
20-10-19 09:05:15.778 : Random seed: 7641
20-10-19 09:05:15.814 : Number of train images: 95, iters: 2
20-10-19 09:05:19.081 : 
Networks name: SRMD
Params number: 1553200
Net structure:
SRMD(
  (model): Sequential(
    (0): Conv2d(19, 128, kernel_size=(3, 3), stride=(1, 1), padding=(1, 1))
    (1): ReLU(inplace=True)
    (2): Conv2d(128, 128, kernel_size=(3, 3), stride=(1, 1), padding=(1, 1))
    (3): ReLU(inplace=True)
    (4): Conv2d(128, 128, kernel_size=(3, 3), stride=(1, 1), padding=(1, 1))
    (5): ReLU(inplace=True)
    (6): Conv2d(128, 128, kernel_size=(3, 3), stride=(1, 1), padding=(1, 1))
    (7): ReLU(inplace=True)
    (8): Conv2d(128, 128, kernel_size=(3, 3), stride=(1, 1), padding=(1, 1))
    (9): ReLU(inplace=True)
    (10): Conv2d(128, 128, kernel_size=(3, 3), stride=(1, 1), padding=(1, 1))
    (11): ReLU(inplace=True)
    (12): Conv2d(128, 128, kernel_size=(3, 3), stride=(1, 1), padding=(1, 1))
    (13): ReLU(inplace=True)
    (14): Conv2d(128, 128, kernel_size=(3, 3), stride=(1, 1), padding=(1, 1))
    (15): ReLU(inplace=True)
    (16): Conv2d(128, 128, kernel_size=(3, 3), stride=(1, 1), padding=(1, 1))
    (17): ReLU(inplace=True)
    (18): Conv2d(128, 128, kernel_size=(3, 3), stride=(1, 1), padding=(1, 1))
    (19): ReLU(inplace=True)
    (20): Conv2d(128, 128, kernel_size=(3, 3), stride=(1, 1), padding=(1, 1))
    (21): ReLU(inplace=True)
    (22): Conv2d(128, 48, kernel_size=(3, 3), stride=(1, 1), padding=(1, 1))
    (23): PixelShuffle(upscale_factor=4)
  )
)

20-10-19 09:05:19.090 : 
 |  mean  |  min   |  max   |  std   | shape  || param_name          
 | -0.000 | -0.063 |  0.061 |  0.015 | torch.Size([128, 19, 3, 3]) || model.0.weight
 |  0.000 |  0.000 |  0.000 |  0.000 | torch.Size([128]) || model.0.bias
 | -0.000 | -0.026 |  0.027 |  0.006 | torch.Size([128, 128, 3, 3]) || model.2.weight
…
